…
COMET INFO:     git-patch (uncompressed) : 1 (2 KB)
COMET INFO:     installed packages       : 1
COMET INFO:     model graph              : 1
COMET INFO:     source_code [2]          : 2
COMET INFO: ----------------------------------
COMET INFO: Saving offline stats to disk before program termination (may take several seconds)
COMET INFO: Starting saving the offline archive
COMET INFO: To upload this offline experiment, run:
    comet upload models/SimpleBaselineVQA/Apr-17-02-20-49/6155dbd7b8354c409344924ce3ce16ac.zip
INFO:train:Model: SimpleBaselineVQA(
  (cnn): VGG(
    (features): Sequential(
      (0): Conv2d(3, 64, kernel_size=(3, 3), stride=(1, 1), padding=(1, 1))
      (1): ReLU(inplace=True)
      (2): Conv2d(64, 64, kernel_size=(3, 3), stride=(1, 1), padding=(1, 1))
      (3): ReLU(inplace=True)
      (4): MaxPool2d(kernel_size=2, stride=2, padding=0, dilation=1, ceil_mode=False)
      (5): Conv2d(64, 128, kernel_size=(3, 3), stride=(1, 1), padding=(1, 1))
      (6): ReLU(inplace=True)
      (7): Conv2d(128, 128, kernel_size=(3, 3), stride=(1, 1), padding=(1, 1))
      (8): ReLU(inplace=True)
      (9): MaxPool2d(kernel_size=2, stride=2, padding=0, dilation=1, ceil_mode=False)
      (10): Conv2d(128, 256, kernel_size=(3, 3), stride=(1, 1), padding=(1, 1))
      (11): ReLU(inplace=True)
      (12): Conv2d(256, 256, kernel_size=(3, 3), stride=(1, 1), padding=(1, 1))
      (13): ReLU(inplace=True)
      (14): Conv2d(256, 256, kernel_size=(3, 3), stride=(1, 1), padding=(1, 1))
      (15): ReLU(inplace=True)
      (16): Conv2d(256, 256, kernel_size=(3, 3), stride=(1, 1), padding=(1, 1))
      (17): ReLU(inplace=True)
      (18): MaxPool2d(kernel_size=2, stride=2, padding=0, dilation=1, ceil_mode=False)
      (19): Conv2d(256, 512, kernel_size=(3, 3), stride=(1, 1), padding=(1, 1))
      (20): ReLU(inplace=True)
      (21): Conv2d(512, 512, kernel_size=(3, 3), stride=(1, 1), padding=(1, 1))
      (22): ReLU(inplace=True)
      (23): Conv2d(512, 512, kernel_size=(3, 3), stride=(1, 1), padding=(1, 1))
      (24): ReLU(inplace=True)
      (25): Conv2d(512, 512, kernel_size=(3, 3), stride=(1, 1), padding=(1, 1))
      (26): ReLU(inplace=True)
      (27): MaxPool2d(kernel_size=2, stride=2, padding=0, dilation=1, ceil_mode=False)
      (28): Conv2d(512, 512, kernel_size=(3, 3), stride=(1, 1), padding=(1, 1))
      (29): ReLU(inplace=True)
      (30): Conv2d(512, 512, kernel_size=(3, 3), stride=(1, 1), padding=(1, 1))
      (31): ReLU(inplace=True)
      (32): Conv2d(512, 512, kernel_size=(3, 3), stride=(1, 1), padding=(1, 1))
      (33): ReLU(inplace=True)
      (34): Conv2d(512, 512, kernel_size=(3, 3), stride=(1, 1), padding=(1, 1))
      (35): ReLU(inplace=True)
      (36): MaxPool2d(kernel_size=2, stride=2, padding=0, dilation=1, ceil_mode=False)
    )
    (avgpool): AdaptiveAvgPool2d(output_size=(7, 7))
    (classifier): Sequential(
      (0): Linear(in_features=25088, out_features=4096, bias=True)
      (1): ReLU(inplace=True)
      (2): Dropout(p=0.5, inplace=False)
      (3): Linear(in_features=4096, out_features=4096, bias=True)
      (4): ReLU(inplace=True)
      (5): Dropout(p=0.5, inplace=False)
    )
  )
  (fc_image): Linear(in_features=4096, out_features=1024, bias=True)
  (word2vec): Embedding(18976, 300, padding_idx=0)
  (fc_questions): Linear(in_features=300, out_features=1024, bias=True)
  (fc1): Linear(in_features=1024, out_features=1000, bias=True)
  (fc2): Linear(in_features=1000, out_features=1000, bias=True)
  (criterion): CrossEntropyLoss()
  (leaky_relu): LeakyReLU(negative_slope=0.01)
  (tanh): Tanh()
  (dropout): Dropout(p=0.5, inplace=False)
)
INFO:train:Logs are stored at: models/SimpleBaselineVQA/Apr-17-02-20-49
